…
    "    model.add(Dropout(0.5))\n",
    "    model.add(Dense(2, activation = 'softmax'))\n",
    "    return model"
   ]
  },
  {
   "cell_type": "code",
   "execution_count": 21,
   "id": "165edf38",
   "metadata": {},
   "outputs": [
    {
     "name": "stdout",
     "output_type": "stream",
     "text": [
      "Model: \"sequential\"\n",
      "_________________________________________________________________\n",
      " Layer (type)                Output Shape              Param #   \n",
      "=================================================================\n",
      " conv2d (Conv2D)             (None, 124, 124, 32)      2432      \n",
      "                                                                 \n",
      " conv2d_1 (Conv2D)           (None, 120, 120, 32)      25632     \n",
      "                                                                 \n",
      " max_pooling2d (MaxPooling2D  (None, 60, 60, 32)       0         \n",
      " )                                                               \n",
      "                                                                 \n",
      " dropout (Dropout)           (None, 60, 60, 32)        0         \n",
      "                                                                 \n",
      " flatten (Flatten)           (None, 115200)            0         \n",
      "                                                                 \n",
      " dense (Dense)               (None, 256)               29491456  \n",
      "                                                                 \n",
      " dropout_1 (Dropout)         (None, 256)               0         \n",
      "                                                                 \n",
      " dense_1 (Dense)             (None, 2)                 514       \n",
      "                                                                 \n",
      "=================================================================\n",
      "Total params: 29,520,034\n",
      "Trainable params: 29,520,034\n",
      "Non-trainable params: 0\n",
      "_________________________________________________________________\n"
     ]
    }
   ],
   "source": [
    "model = build_model()\n",
…
